ppo_chemotherapy.pt (torch, 22992 bytes, 6 tensors)

shared.0.weight f4 [64, 6]
000000 ee 50 43 3e b5 a0 c0 3e b2 c5 28 3d a9 75 c2 3e
       0.19073841 0.3762261 0.041204162 0.37980393
000010 fb 18 27 3e 87 ed 49 3d f2 32 20 be 74 81 29 3e
       0.16318123 0.04929879 -0.15644434 0.16553289
000020 1a bf 69 be 99 59 cc 3e 67 2d c3 3e 1e ea a0 be
       -0.22826806 0.39912108 0.38120577 -0.31428617
000030 66 51 ae bc f7 a3 ba be 5e cc f0 3d d8 68 3d be
       -0.021279048 -0.3645322 0.1175773 -0.18497026
000040 09 1e 1a be 46 d3 da 3c 32 0c 2e be e9 cb 5e 3e
       -0.1505052 0.026712071 -0.1699684 0.21757473
000050 42 72 5c be 0f c7 8f be 30 d5 ca 3e 0b 68 00 3e
       -0.21527961 -0.28081557 0.39615774 0.12539689
000060 44 03 02 3e e6 36 ba 3e de 97 f2 bd 01 5d ed bd
       0.12696558 0.3637001 -0.118453726 -0.11590005
000070 c6 fe 46 3c b7 45 4f 3d 2b 2b b8 be d4 c6 bb 3d
       0.012145704 0.050603595 -0.35970435 0.09168783
000080 97 68 18 3e 6a 64 ab be e9 83 82 3d 5d ae df be
       0.14883648 -0.33475047 0.06372816 -0.43687716
000090 c0 52 c5 be 5a 11 9a be 65 a9 e9 3b 17 12 c7 be
       -0.38539696 -0.30091363 0.007130789 -0.3888099
0000a0 fe ea c8 be 9b d5 52 be c0 6f 44 3e 15 34 8b be
       -0.39241785 -0.20589297 0.19183254 -0.27188173
0000b0 dd 8f 8b bd 82 0b 37 be ae 96 0c bd dd 68 af bd
       -0.06814549 -0.17875484 -0.034323387 -0.08564923
0000c0 d2 49 13 be 85 ce f6 be 8c 3f 0b bd 2c 36 8d be
       -0.14383629 -0.48204437 -0.03399615 -0.27580392
0000d0 1b b0 5d 3e f9 eb 14 be f5 23 63 bb 97 f1 c5 3e
       0.2164921 -0.14543141 -0.0034658883 0.3866088
0000e0 7f 69 2c be b9 9b a8 3e 73 12 4b be b1 b6 d8 3d
       -0.16837119 0.32931307 -0.19831257 0.105817206
0000f0 be 80 8b 3e cf 65 aa bb a7 78 29 be 07 ab 9a bc
       0.2724666 -0.005200125 -0.16549931 -0.01888038
000100 1c f8 b0 be a4 d5 bd 3e 85 fc 83 be 67 90 17 be
       -0.34564292 0.37077057 -0.25778595 -0.14801179
000110 a4 e6 f9 3d 6e b5 62 3e f1 6e cd 3e 6d 8e ef 3d
       0.12202194 0.22139522 0.40123704 0.116970874
000120 f2 1f 13 3c c6 9f eb 3e ed 61 cc be 13 0c a9 be
       0.008979784 0.46020335 -0.3991846 -0.33017024
000130 04 8d df bc 7a a5 02 be eb 00 66 bd 68 92 b3 3e
       -0.027288921 -0.12758437 -0.05615322 0.35072637
000140 11 31 89 be d0 b6 ab be 5b 6c 7f 3c d2 19 3a be
       -0.26795247 -0.33537912 0.015589799 -0.18173912
000150 7b 4a 83 be da 56 9a be 86 87 26 3e 40 9d 6b 3d
       -0.25642762 -0.30144387 0.16262636 0.057523012
000160 59 79 11 3e 38 a0 8d 3e 44 d1 fe 3c 9a 53 70 3d
       0.14206447 0.276613 0.031105645 0.05867348
000170 37 aa 4f 3e 41 de fb bb 46 92 bb 3e df a0 9e be
       0.20279776 -0.007686407 0.36635035 -0.3098211
000180 57 f3 d9 be 03 02 87 3e 28 f6 93 be df 82 37 be
       -0.42568466 0.26368722 -0.2889874 -0.17921017
000190 ee 32 b6 bd 14 31 13 be c4 76 91 3e c4 61 cb 3e
       -0.08896433 -0.1437419 0.28410923 0.39723027
0001a0 ed 29 0f 3e da ac 99 3e 26 9e 17 3e e1 c2 07 3d
       0.13980837 0.30014688 0.14806423 0.033144835
0001b0 b9 49 88 be 5f 1b 49 be c3 79 dc bd 7e a3 a1 3e
       -0.26618746 -0.19639347 -0.10765412 0.31570047
0001c0 8e 24 44 3e a4 6d a0 be 0c bb dc be bc d3 da be
       0.1915457 -0.3133365 -0.43111455 -0.42739666
0001d0 65 84 85 3e c3 51 af be 35 6b a8 be 67 e5 37 be
       0.26077572 -0.34242067 -0.32894292 -0.17958604
0001e0 62 8c 07 bd fe 36 86 3d 7c f1 20 be a5 8e be 3e
       -0.033092864 0.06553458 -0.15717119 0.37218204
0001f0 5d ed 01 3e 83 a6 3a bd fb 25 c3 be f3 46 c0 3e
       0.12688203 -0.045568954 -0.38114914 0.3755413
000200 e4 93 c1 be 73 a5 bc bd b9 a6 4a 3d e7 3d 0f be
       -0.37808144 -0.092112444 0.049475405 -0.13988458
000210 b0 29 b6 be 58 9a ee 3d e5 74 88 be 80 a9 0e 3d
       -0.3557868 0.116505325 -0.26651683 0.034829617
000220 c2 5c 4b be 5c 92 5c be 5f c3 4c be 2b 30 78 3d
       -0.19859603 -0.21540207 -0.19996403 0.06059281
000230 bb 4e 70 3e 45 b3 b4 3e 82 0d a2 bd da 5e 31 3d
       0.23467533 0.35293022 -0.07912733 0.043303348
000240 ce c5 10 3e 4d c2 e4 be c7 db 4e 3d ac 09 bf be
       0.14137957 -0.4467949 0.050502565 -0.37312067
000250 1b 87 48 be 73 60 88 be 9c 96 ae 3e 5f 54 a3 3e
       -0.19582789 -0.26636085 0.3409928 0.31900308
000260 a8 f6 ec bd bd 74 83 be 92 55 9d be 9a f6 b9 3e
       -0.115704834 -0.25675002 -0.30729347 0.36320955
000270 10 30 36 be 40 bb 0b bf 0a 87 a3 be 21 65 95 3e
       -0.17791772 -0.54582596 -0.31938964 0.29178718
000280 fb 17 af 3d 74 43 35 be 0f 74 82 be cf 13 85 3e
       0.08549496 -0.17701513 -0.2547917 0.25991675
000290 c6 df 3e 3e 19 7a e1 3d 09 28 fd bc 09 9e 96 3e
       0.1864005 0.110096164 -0.03090288 0.29417446
0002a0 03 72 3b be c3 c6 ab be bf 3c be bd ea e1 ba bd
       -0.18305211 -0.3355008 -0.0928893 -0.09125121
0002b0 3e b1 cb be 83 9d 63 be f0 c8 c5 3e 75 a7 6e 3e
       -0.39783663 -0.22228055 0.38629866 0.23306067
0002c0 12 4f 27 3d fd d7 86 3e d4 ae d7 3e d6 a5 96 3e
       0.04084689 0.2633666 0.4212557 0.29423398
0002d0 fd cf 3e be a2 ee 7a 3e f3 1b db be 47 ac 4b be
       -0.18634029 0.24505094 -0.4279476 -0.19889937
0002e0 e4 a5 47 3e 59 77 bf 3d 44 fe 46 bd ea 92 91 3e
       0.19496876 0.09348936 -0.04858233 0.284324
0002f0 8c 92 86 be ea 9f c1 3e b7 fa 36 3d 02 e2 b2 be
       -0.2628368 0.37817317 0.044672694 -0.34938055
000300 f7 9a c6 3e 94 4e a9 bd 97 1c be be 80 e4 09 3e
       0.38790104 -0.08266941 -0.37131187 0.13466072
000310 f0 28 2b 3e 7b fc 20 3e 9e b0 f0 be 60 7a d3 bc
       0.16714835 0.15721314 -0.47009748 -0.025815189
000320 78 bb 1e be 94 79 8d 3e 19 2d 77 3d 35 8a c5 bd
       -0.15501201 0.2763182 0.060345743 -0.096455015
000330 01 07 23 bd 98 47 1c be c8 37 d6 bd a5 fa 0a be
       -0.0398016 -0.15261686 -0.10459858 -0.13572176
000340 0b 1d 6d 3e a7 0d 14 3d 29 1b c4 3e 6b 90 a7 bd
       0.2315561 0.036145832 0.38301972 -0.081818424
000350 00 24 f7 be 4e 57 df bd 76 f8 85 3d 2c d8 c4 3d
       -0.48269653 -0.10905324 0.06541531 0.09611544
000360 6c b9 89 3d 9e a1 85 be ea 94 d0 3d 2e 9c 44 3e
       0.067248195 -0.26099867 0.10184653 0.19200203
000370 aa f8 a3 be 23 5f 96 3e 10 b8 09 3e 99 5f 01 3f
       -0.32025653 0.2936946 0.1344912 0.50536495
000380 84 42 8f 3e fe 2b df bd ec 3d 5f 3e b2 81 ad 3c
       0.27980435 -0.10897063 0.21800965 0.021180008
000390 f5 d4 2d be a3 02 d3 bd 09 fe 81 be 19 12 c7 be
       -0.16975768 -0.10303237 -0.25389126 -0.38880995
0003a0 29 c0 ac be bc 9d e0 3e 64 44 60 3e 88 e4 5e 3e
       -0.33740357 0.43870342 0.21901089 0.21766865
0003b0 46 2d 89 3d c6 18 cb 3e 8a d1 aa bd 75 6e 60 3e
       0.06698088 0.39667338 -0.08340748 0.21917136
0003c0 66 d7 d8 be 17 9c c4 3d db 7f 78 be 92 2e c2 be
       -0.42351836 0.09600084 -0.24267523 -0.37926155
0003d0 4d fb b5 be a5 00 e2 3d 5d b3 89 3e b2 b8 99 3e
       -0.3554329 0.11035279 0.26894656 0.30023724
0003e0 44 7d 10 be 3b 6c 87 be 3f 76 a9 3e 66 d7 e5 be
       -0.14110285 -0.2644976 0.33098027 -0.44890898
0003f0 d6 a9 70 3e c5 6e 8e 3e ae 50 f0 bd e6 44 62 be
       0.23502287 0.27818885 -0.117341384 -0.22096595

shared.0.bias f4 [64]
000000 38 d3 09 3e 2f 90 e9 3d 8f cd 8c 3e 30 26 3e 3d
       0.1345948 0.11404454 0.2750058 0.046423137
000010 0d 12 85 be 38 1d 95 3e 82 c1 00 3e 0a ab a0 3e
       -0.25990334 0.29123855 0.12573817 0.31380492
000020 0a 46 ff bd 01 f6 ef 3e 64 f5 ba 3e f3 36 1c be
       -0.12464531 0.46867374 0.36515343 -0.15255336
000030 6f 67 b6 be 40 23 44 be 6f 58 c6 be ea a1 7b 3e
       -0.3562579 -0.19154072 -0.38739344 0.24573484
000040 71 2b 4f be 16 58 a1 3d 17 15 a2 be fb be 21 3e
       -0.20231415 0.07878129 -0.31656715 0.1579551
000050 7c 7d 1f 3e 43 b0 be be af af ad be 4a fe e8 3d
       0.15575212 -0.37243852 -0.33923098 0.11376627
000060 41 60 a8 3e 6d 38 8a 3d a7 ca 5f be fd 7e db bc
       0.32885936 0.067490436 -0.2185465 -0.026793951
000070 ec 6f aa be 58 b6 a5 bd 82 8a bc be 64 70 7b 3e
       -0.33288515 -0.0809142 -0.36824423 0.24554592
000080 1d ce 9d be bd 58 e9 be fd 48 a3 3e b0 7c 7f 3e
       -0.30821314 -0.45575514 0.31891623 0.24949908
000090 9f d3 18 bd 23 12 2c be c1 80 12 be 99 f3 40 3e
       -0.037311193 -0.16803794 -0.14306928 0.18842925
0000a0 c3 94 bd be c2 66 a1 be 9b 90 b4 3e 44 24 1a 3e
       -0.3702756 -0.3152371 0.35266575 0.15052897
0000b0 2e 7f b1 be 48 5f 97 3e 02 d7 55 3e 54 08 81 be
       -0.34667343 0.2956488 0.208828 -0.25201666
0000c0 eb fb c8 be 62 1d 2e 3e 57 54 05 bf 42 0b ba 3e
       -0.39254698 0.17003396 -0.5208182 0.36336714
0000d0 cd 7c de 3e 37 d0 61 bd 81 7d df be 44 e7 25 3e
       0.4345459 -0.05513021 -0.4365044 0.16201502
0000e0 fb 02 54 3e 61 fd b4 3e c0 03 5e be e6 31 14 be
       0.20704262 0.35349563 -0.21681118 -0.1447216
0000f0 9a 04 9b be 93 55 de 3e 74 60 b0 be 23 2e cd 3e
       -0.30276948 0.43424663 -0.34448588 0.40074262

shared.2.weight f4 [64, 64]
000000 28 b4 0e 3c 78 22 a1 bd a7 ac 11 bd a4 68 72 bd
       0.008709945 -0.078679025 -0.035565045 -0.059181824
000010 bb f6 01 3e 28 e9 0e bd 39 55 54 bc 8a 6d 27 be
       0.12691776 -0.034890324 -0.012959772 -0.1635038
000020 84 ef cc bd 69 62 6c 3d 5d 7f 94 bd b8 62 c0 bd
       -0.100066215 0.05771104 -0.07250855 -0.09393829
000030 6f 94 25 be 75 39 82 3c 81 88 98 bc ec 4c 98 3d
       -0.16169904 0.015896538 -0.018619778 0.07436547
000040 66 06 2e be 75 27 24 3d 07 e7 16 3d a0 7a e0 bd
       -0.16994628 0.04007669 0.03684142 -0.10960889
000050 e1 d3 a1 3d 32 90 0b 3c 04 21 e1 3c bd c9 0b bd
       0.07901741 0.008518266 0.027481563 -0.03412794
000060 79 9e 53 be 08 02 08 3d 27 38 b6 3d 45 57 fb bd
       -0.20665921 0.033205062 0.08897429 -0.12272505
000070 2e 58 44 3d 52 a7 15 3e 3e c4 d2 bd 40 f3 82 bd
       0.047935657 0.14614609 -0.102913365 -0.063940525
000080 73 0d 91 3d 67 ca bc 3d 67 be 80 bd a1 c2 77 bc
       0.07082643 0.09218293 -0.06286316 -0.015122087
000090 bc 7c c4 3d 2b 22 06 3d e0 f4 b3 bd 2d ad 05 3e
       0.09594104 0.03274743 -0.087869406 0.13054343
0000a0 6f d5 bc bd 8f ec d7 3c a7 28 e8 bd 29 01 d8 3a
       -0.09220397 0.026357917 -0.11335879 0.0016479838
0000b0 ea 39 eb 3b bd 3a 9f bd 7f da 48 bd 34 a3 d5 3c
       0.0071785348 -0.07774875 -0.0490365 0.026078798
0000c0 4e 99 31 bd fd d9 16 3e da 99 a1 3d 47 cd 0b bd
       -0.043359093 0.14731593 0.07890673 -0.034131315
0000d0 c1 1d 42 be 64 ae f6 3d f4 2a 9a bd 97 a1 97 3c
       -0.18956663 0.12044981 -0.07527724 0.01850967
0000e0 c4 9d 4f 3d 7a 4d 07 bd 27 e5 78 bd 79 e2 1c be
       0.050687566 -0.03303287 -0.06076541 -0.15320767
0000f0 d1 32 6d 3d 75 c6 89 3d 86 9b 4a bb c3 8c a2 bd
       0.05790979 0.06727306 -0.0030915453 -0.079370044
000100 27 bf 85 3d 56 e4 b7 bd 85 89 7b 3e 57 47 a1 3c
       0.065306 -0.089790985 0.24564178 0.019687338
000110 12 42 2b be af 44 03 be 8a 22 9a 3d 9d 13 06 bd
       -0.16724423 -0.1281917 0.07526119 -0.03273355
000120 f1 10 19 3c bd 0e 28 be f6 82 a3 bc 73 94 f6 b9
       0.009342418 -0.16411872 -0.019959908 -0.0004703138
000130 b3 e7 53 bc da cc 4a be 3b c3 2c 3e 18 30 d0 3d
       -0.012933659 -0.19804707 0.1687135 0.10165423
000140 df f6 97 bd 39 38 fb bd 90 51 2b bd 58 4a c8 3d
       -0.07420134 -0.12266583 -0.04182583 0.09779805
000150 79 2f 96 bd 48 e4 32 be 18 70 93 3d 29 d6 42 bd
       -0.073332734 -0.17469895 0.071991146 -0.04756752
000160 ef 5f 0c 3e 88 d9 bd bd 20 48 b4 3d 58 b3 e1 bc
       0.13708471 -0.092700064 0.08802819 -0.027551338
000170 e7 a6 b7 3c 7c 07 27 3c 2f fc 22 bd a7 d6 00 bc
       0.022418452 0.0101946555 -0.039791282 -0.007863677
000180 42 b0 7c bc 25 fe a4 3d bf ad b3 bc fc e2 e0 bc
       -0.0154228825 0.08056287 -0.021933435 -0.027451985
000190 a5 8c aa 3c 0b d3 8c bc 09 4e 2a bc 0f d4 16 be
       0.020819018 -0.017190477 -0.010394582 -0.14729331
0001a0 77 c6 b5 bd d7 89 81 be 5a dd b5 bd 1e af d5 3e
       -0.08875745 -0.25300476 -0.0888011 0.41735166
0001b0 ce b4 33 3e 20 87 ce bd 81 29 15 3e b9 c8 e3 bd
       0.1754944 -0.10084367 0.14566614 -0.11122269
0001c0 10 19 ad bc 6a 4d eb bd 2a 18 0e 3e d8 dd ce bd
       -0.021130115 -0.11489375 0.13876405 -0.10100907
0001d0 bd b8 c9 3c ed d5 fe bd a9 47 16 3d e8 a1 40 3d
       0.024624223 -0.12443147 0.036689434 0.047029406
0001e0 94 cb fc bd 85 d4 5c 3d c3 8e f1 3b c7 a6 d5 bd
       -0.12343517 0.053913612 0.007371755 -0.10432201
0001f0 1f 7e 41 3d 5f a1 0c 3e 60 5d 04 be a5 67 b3 3d
       0.04723942 0.13733433 -0.12926245 0.08760003
000200 ff 9b bd bd db ea 1c be 73 64 d8 3d c5 cc e1 bd
       -0.092582695 -0.15323965 0.10566034 -0.11025385
000210 ce 9f 3f be 43 89 e4 bd 70 9c 0d 3d a4 27 9c 3d
       -0.18713304 -0.11158993 0.03457302 0.07624748
000220 65 ad ba 3d b2 d2 02 be 4b be 83 bd ac 30 c2 3d
       0.09115104 -0.12775686 -0.0643278 0.0948194
000230 e9 c1 3d be fd 5c 91 be c1 a1 0d 3e 95 cb 94 3d
       -0.18531002 -0.28391257 0.13831235 0.07265393
000240 d0 65 31 bc 47 1c c4 3c b2 12 07 3e 44 8a 17 3c
       -0.010827497 0.023939265 0.13190725 0.009249274
000250 da 35 e7 bd 02 2d 04 be 39 0b 40 bd e1 ca 5b 3d
       -0.11289568 -0.12907794 -0.046885703 0.053660277
000260 8c 35 8a 3e 2c 70 c1 bd d2 c2 46 bd 76 b2 50 be
       0.26993978 -0.09445223 -0.04852564 -0.20380577
000270 03 e3 3a bc 4b 95 d1 3d 09 aa 92 bd 0d 59 1b be
       -0.011406663 0.102335535 -0.07161338 -0.15170689
000280 bb 95 17 3d 55 07 cc 3c 67 26 be 3c 5c 49 0e be
       0.03700803 0.02490584 0.023211671 -0.13895172
000290 55 a3 ba 3d d2 54 2f 3d d3 02 95 bd 0b 8b 79 bd
       0.09113184 0.0428055 -0.07275929 -0.060923617
0002a0 0f 86 06 3e 58 e1 e6 bd bb 47 bb bd e2 4d d9 3e
       0.13137077 -0.1127345 -0.09144541 0.42442232
0002b0 9b e1 09 3d 64 2d 95 bd 62 fa 9a 3d 65 b7 c2 3d
       0.03366242 -0.07284048 0.07567288 0.09507636
0002c0 42 fb 3f bd 33 59 b7 3c 0c 13 81 3d 33 4e 17 be
       -0.046870477 0.0223814 0.06302461 -0.14775924
0002d0 42 9f 16 bd 25 cf 16 be ed 98 84 bd 57 a9 fa 3d
       -0.036772974 -0.14727457 -0.06474481 0.1223933
0002e0 27 3f f5 bd 9f a5 c2 bb 86 3c 54 3a aa 5a 78 bd
       -0.11974936 -0.0059401537 0.0008096177 -0.06063334
0002f0 46 40 a4 3c 49 78 55 bd cb 53 85 bd c3 d8 47 3e
       0.02005018 -0.052116666 -0.06510123 0.19516282
000300 7d df 42 bd 79 81 cc bc 57 88 37 3e 69 7e e5 bd
       -0.047576416 -0.024964081 0.17923103 -0.112057514
000310 6f e3 df bd fc 33 b8 bd 82 42 15 3e 1a 63 d2 3d
       -0.109320514 -0.0899429 0.14576152 0.102728084
000320 25 67 9b 3d 86 7d 0e bc b5 4d 26 3d 5f ec 29 3d
       0.07588033 -0.008696919 0.04060145 0.041485187
000330 e0 da 82 bc e6 12 0d bd 57 26 6d bc 9e c8 88 bc
       -0.015973508 -0.03444185 -0.014474473 -0.016697224
000340 09 47 44 3d ae 6b 74 3c 1c 11 ed 3d 46 e3 0c 3e
       0.047919307 0.014918251 0.11575529 0.13758573
000350 ee f9 3a bd d2 4f 7c 3d 13 72 b8 3d 98 6b 82 bd
       -0.045648508 0.06159956 0.09006133 -0.06368178
000360 f8 81 e4 3d af 7b 3f 3e 7e 9b d6 bd c2 a0 46 3d
       0.11157602 0.18699525 -0.104788765 0.048493154
000370 5f 63 52 bc 16 e8 9a 3c 02 30 c6 bb 53 02 8b 3d
       -0.012841075 0.018909495 -0.0060482034 0.06787553
000380 ba 8e 00 be 06 5e e9 bd ce fa 61 bd 66 fc 1f 3e
       -0.12554446 -0.11394887 -0.055170827 0.15623626
000390 21 94 f5 3d 21 71 a7 bc 4d 53 63 3b e4 70 05 be
       0.11991144 -0.020439686 0.0034687102 -0.13031346
0003a0 9a 02 b6 3c 5a 92 1e be 4f a8 55 3d 6b 4f 30 3e
       0.022218037 -0.15485516 0.052162465 0.17217796
0003b0 09 30 b0 bd 14 e7 46 3e db eb 01 3e 8c 9a cd bc
       -0.08602912 0.19424087 0.12687628 -0.025098108
0003c0 4e 7a 9d 3d c7 00 e0 bd 70 38 8c bd 79 06 9c 3b
       0.076893434 -0.10937648 -0.06846702 0.004761514
0003d0 d5 1f 2d 3e 75 a8 93 bd f6 0a f3 3c 74 f8 9c 3d
       0.16906674 -0.07209865 0.029668313 0.07664576
0003e0 bc 6b 97 bd f2 80 ac bd 08 66 c0 bd 31 c8 8e 3d
       -0.073935956 -0.08423032 -0.09394461 0.06971777
0003f0 7f 6d 1b be e1 b4 c4 3c e7 15 4d 3d 94 4c 29 3e
       -0.15178488 0.024012031 0.050069716 0.16533118

shared.2.bias f4 [64]
000000 44 0b a6 3d 13 30 3e bd 78 37 f9 3c b2 1f 4a bd
       0.081076175 -0.046432566 0.030421957 -0.049346633
000010 65 40 9b 3d 93 fe 3e bd 3b 88 c1 3d af 21 82 bd
       0.07580642 -0.0466295 0.09449812 -0.06354081
000020 09 e1 86 bd 99 11 ea 3d ee f6 c8 bd e9 8f 27 bc
       -0.06585891 0.11429138 -0.09812723 -0.010227182
000030 2d 4d 69 bc 26 ef a7 3d 40 a6 b5 3d 06 b2 86 bd
       -0.014239592 0.08199911 0.088696 -0.06576924
000040 8a 76 79 bc 11 f3 b4 bd b5 7e ca 3d 96 5d 53 3d
       -0.015226016 -0.08835424 0.09887449 0.051602922
000050 61 b1 0d bc a5 f1 96 3d a8 d1 63 bc 6c 10 84 3d
       -0.008648247 0.07370309 -0.013904966 0.06448445
000060 13 37 ed 3d e9 24 82 bc 3d 18 9d 3d d7 ad 94 3d
       0.1158277 -0.01588674 0.07670639 0.0725972
000070 89 45 04 bd 3e 2a 62 3d b8 6a 2e 3d 37 98 b1 bd
       -0.032292876 0.055216067 0.042582244 -0.08671611
000080 7e 6f 92 3d bd aa 82 bd 99 a5 b4 bd 22 54 93 3d
       0.07150172 -0.06380222 -0.08820648 0.071937814
000090 21 0d 62 3d 4f a4 98 3b 85 29 5b bd 3d 88 54 3b
       0.055188302 0.004658259 -0.053506393 0.0032429837
0000a0 ed b4 67 bd 5b c7 50 bd a7 c5 e4 3c e1 09 7e bd
       -0.05656903 -0.05097137 0.02792628 -0.06202114
0000b0 40 d3 c1 3c da 0a 39 3d 55 57 ac 3d 0b e4 94 b9
       0.023660302 0.045176364 0.08415095 -0.00028398665
0000c0 c9 9d 70 3b e1 01 e0 bd 65 47 1b 3d 13 30 42 bd
       0.003671514 -0.109378584 0.037909884 -0.04740913
0000d0 06 46 2d be b5 a9 15 3d 0b cd 91 3d ea 7b 21 bd
       -0.16921243 0.0365388 0.07119187 -0.039424814
0000e0 ca 37 0a be 1d 1a b1 bc 35 a2 e9 3d 57 92 ac 3d
       -0.13497844 -0.021618897 0.11407892 0.084263496
0000f0 52 42 3a bc bf 4f 9d 3d 4e 0a 47 bd 51 6a c7 3c
       -0.011368351 0.07681226 -0.04859381 0.024342688

mu_head.weight f4 [1, 64]
000000 17 22 f4 bd 80 e2 35 be c8 f8 c1 be 96 0d 39 3d
       -0.119205646 -0.17762184 -0.37885118 0.045178972
000010 5e 1a 51 bd 80 91 b1 bd 89 c9 36 bd 6e 64 87 bd
       -0.051050536 -0.0867033 -0.044625793 -0.06610952
000020 51 75 c0 bd 56 b3 7d bd 45 cc 0d 3e 99 01 8b 3d
       -0.09397376 -0.061938606 0.13847454 0.06787414
000030 97 38 7f 3d 79 37 69 be aa 71 7b bc 39 5b a3 bc
       0.062309828 -0.22775067 -0.015346924 -0.01994096
000040 39 07 40 3e 15 e9 ff 3d 69 f5 c1 3d 1f 37 ea bd
       0.18752755 0.12495629 0.094706364 -0.11436295
000050 ef d7 88 be d6 7b 53 3e 5e 78 b9 bd 6a c9 e5 3d
       -0.26727244 0.20652708 -0.09056161 0.11220057
000060 90 e6 d1 3d 4f 41 0a bc ad 60 aa bd bc 09 e9 3c
       0.102490544 -0.008438422 -0.08319221 0.028447025
000070 0c 22 bb be a6 27 85 3d 26 7c 38 3d 9d 9d 21 bc
       -0.36549413 0.06501703 0.045040272 -0.009864238
000080 12 0f 06 be 8a 95 83 bd e1 9d 20 3e 85 fd f3 3d
       -0.13091686 -0.06425007 0.15685226 0.119135894
000090 eb 93 51 3e 48 92 f1 3d 35 5d 5e 3e b3 76 3c 3d
       0.20466582 0.11795479 0.21715243 0.046011638
0000a0 78 40 16 be ab e4 31 3c 1e f3 20 bd 6d 8c 0a bd
       -0.1467303 0.010857741 -0.039294355 -0.033825327
0000b0 d5 64 c5 3d 7f bc a9 3d dc 15 89 3c bc cc 1a 3d
       0.09638373 0.08287906 0.016734056 0.037792906
0000c0 1d 21 c1 bd 61 b2 58 3e 33 60 56 be f1 58 08 3e
       -0.09430144 0.21161796 -0.20935135 0.13315178
0000d0 35 4a ad 3e 08 8d dd be b0 5f b9 bd 95 ef 45 bd
       0.33845678 -0.4327166 -0.09051454 -0.048324186
0000e0 e9 34 25 bd 6c ee bf bd 74 da 0a be bb 78 4d 3d
       -0.040333662 -0.09371647 -0.13559896 0.050163966
0000f0 3f 5c 21 bd 4a 9f 95 be c5 5e c5 bd d7 05 af 3e
       -0.039394613 -0.2922309 -0.096372165 0.34184143

v_head.weight f4 [1, 64]
000000 e9 bc 20 3e 4b 01 12 bd 51 5c 86 be 62 9a 32 bd
       0.15697064 -0.035645764 -0.26242307 -0.043604262
000010 18 d9 23 3e ee 82 c9 bd c3 bd ae 3d 7c 4b d4 bd
       0.16000783 -0.09839426 0.08532288 -0.1036596
000020 8d 1a 52 3d 4e 91 1e 3e 4b 05 13 be 0f e9 db bc
       0.051294852 0.15485117 -0.14357488 -0.02684453
000030 fd 16 2f be 2c 21 60 bd 7e 06 0a be 55 1a 30 3e
       -0.17098613 -0.054719135 -0.13479039 0.17197545
000040 6b c3 96 3e fc d6 5d 3b 39 b5 0a be 69 c6 bf 3d
       0.29445967 0.0033850065 -0.13545693 0.093640156
000050 76 3b 73 be a5 5d 25 3e 52 20 30 3e 8e c2 79 bd
       -0.23753151 0.16149004 0.17199829 -0.060976557
000060 7d 43 12 be 59 de a5 bc 5d 31 1e 3e 8d 26 4e be
       -0.14283557 -0.020247625 0.15448518 -0.20131893
000070 4a b8 92 be b0 ab 1b be f6 64 b0 bd 4c 2e f4 3c
       -0.28656226 -0.15202212 -0.08613007 0.029807232
000080 f0 6b 81 3d 7b c5 d4 bd 01 a1 ef 3d 87 53 33 be
       0.063194156 -0.10389229 0.11700631 -0.17512332
000090 7b 09 86 bc 3b 97 d4 3d d7 ad 8b bd ed 72 dc bd
       -0.016361943 0.103804074 -0.06820267 -0.10764108
0000a0 b2 1b 7b 3c bc b5 6d 3e 18 26 bd 3d e1 f0 09 3e
       0.015326427 0.23213857 0.092357814 0.13470794
0000b0 8b f3 0f 3e 1a ef 43 bc 7b eb e1 3d 8b 74 18 3e
       0.14057748 -0.011958862 0.110312425 0.14888208
0000c0 bc f1 05 3e f6 56 0f 3e 51 9d 69 be 8a 0c 47 bb
       0.13080496 0.13998017 -0.22813918 -0.0030372464
0000d0 8b 10 4f 3e d9 f3 8e be 41 13 48 3e 5d d9 c0 3d
       0.20221154 -0.27920416 0.19538595 0.09416459
0000e0 50 dc 66 3d 0b 94 17 bd a8 c5 02 be a8 d1 b2 3d
       0.05636245 -0.03700642 -0.12770712 0.08731395
0000f0 fb bf 3f 3e 2b 9f 89 be ce c3 65 bd 28 d2 81 3e
       0.18725578 -0.26879248 -0.056094937 0.2535565
